…
hs 99 --shots 0 --early_stop_patience 5 --steps_per_epoch 600 --best_weight_path ./checkpoints/lung_uie_mcc_vat.pt --train_history_path ./history/lung_uie_mcc_vat.csv --log_path ./log/logs/lung_uie_mcc_vat.log --tensorboard_dir ./tensorboard/lung_uie_mcc_vat/
Global seed set to 42
===============================================================================================
Layer (type:depth-idx)                        Output Shape              Param #
===============================================================================================
UIE                                           [16, 239]                 --
├─BertEmbeddings: 1-1                         [16, 239, 768]            --
│    └─Embedding: 2-1                         [16, 239, 768]            30,720,000
│    └─Embedding: 2-2                         [16, 239, 768]            2,304
│    └─Embedding: 2-3                         [16, 239, 768]            3,072
│    └─Embedding: 2-4                         [16, 239, 768]            1,572,864
│    └─LayerNorm: 2-5                         [16, 239, 768]            1,536
│    └─Dropout: 2-6                           [16, 239, 768]            --
├─ModuleList: 1-2                             --                        --
│    └─BertLayer: 2-7                         [16, 239, 768]            --
│    │    └─MultiHeadAttentionLayer: 3-1      [16, 239, 768]            2,362,368
│    │    └─Dropout: 3-2                      [16, 239, 768]            --
│    │    └─LayerNorm: 3-3                    [16, 239, 768]            1,536
│    │    └─PositionWiseFeedForward: 3-4      [16, 239, 768]            4,722,432
│    │    └─Dropout: 3-5                      [16, 239, 768]            --
│    │    └─LayerNorm: 3-6                    [16, 239, 768]            1,536
│    └─BertLayer: 2-8                         [16, 239, 768]            --
│    │    └─MultiHeadAttentionLayer: 3-7      [16, 239, 768]            2,362,368
│    │    └─Dropout: 3-8                      [16, 239, 768]            --
│    │    └─LayerNorm: 3-9                    [16, 239, 768]            1,536
│    │    └─PositionWiseFeedForward: 3-10     [16, 239, 768]            4,722,432
│    │    └─Dropout: 3-11                     [16, 239, 768]            --
│    │    └─LayerNorm: 3-12                   [16, 239, 768]            1,536
│    └─BertLayer: 2-9                         [16, 239, 768]            --
│    │    └─MultiHeadAttentionLayer: 3-13     [16, 239, 768]            2,362,368
│    │    └─Dropout: 3-14                     [16, 239, 768]            --
│    │    └─LayerNorm: 3-15                   [16, 239, 768]            1,536
│    │    └─PositionWiseFeedForward: 3-16     [16, 239, 768]            4,722,432
│    │    └─Dropout: 3-17                     [16, 239, 768]            --
│    │    └─LayerNorm: 3-18                   [16, 239, 768]            1,536
│    └─BertLayer: 2-10                        [16, 239, 768]            --
│    │    └─MultiHeadAttentionLayer: 3-19     [16, 239, 768]            2,362,368
│    │    └─Dropout: 3-20                     [16, 239, 768]            --
│    │    └─LayerNorm: 3-21                   [16, 239, 768]            1,536
│    │    └─PositionWiseFeedForward: 3-22     [16, 239, 768]            4,722,432
│    │    └─Dropout: 3-23                     [16, 239, 768]            --
│    │    └─LayerNorm: 3-24                   [16, 239, 768]            1,536
│    └─BertLayer: 2-11                        [16, 239, 768]            --
│    │    └─MultiHeadAttentionLayer: 3-25     [16, 239, 768]            2,362,368
│    │    └─Dropout: 3-26                     [16, 239, 768]            --
│    │    └─LayerNorm: 3-27                   [16, 239, 768]            1,536
│    │    └─PositionWiseFeedForward: 3-28     [16, 239, 768]            4,722,432
│    │    └─Dropout: 3-29                     [16, 239, 768]            --
│    │    └─LayerNorm: 3-30                   [16, 239, 768]            1,536
│    └─BertLayer: 2-12                        [16, 239, 768]            --
│    │    └─MultiHeadAttentionLayer: 3-31     [16, 239, 768]            2,362,368
│    │    └─Dropout: 3-32                     [16, 239, 768]            --
│    │    └─LayerNorm: 3-33                   [16, 239, 768]            1,536
│    │    └─PositionWiseFeedForward: 3-34     [16, 239, 768]            4,722,432
│    │    └─Dropout: 3-35                     [16, 239, 768]            --
│    │    └─LayerNorm: 3-36                   [16, 239, 768]            1,536
│    └─BertLayer: 2-13                        [16, 239, 768]            --
│    │    └─MultiHeadAttentionLayer: 3-37     [16, 239, 768]            2,362,368
│    │    └─Dropout: 3-38                     [16, 239, 768]            --
│    │    └─LayerNorm: 3-39                   [16, 239, 768]            1,536
│    │    └─PositionWiseFeedForward: 3-40     [16, 239, 768]            4,722,432
│    │    └─Dropout: 3-41                     [16, 239, 768]            --
│    │    └─LayerNorm: 3-42                   [16, 239, 768]            1,536
│    └─BertLayer: 2-14                        [16, 239, 768]            --
│    │    └─MultiHeadAttentionLayer: 3-43     [16, 239, 768]            2,362,368
│    │    └─Dropout: 3-44                     [16, 239, 768]            --
│    │    └─LayerNorm: 3-45                   [16, 239, 768]            1,536
│    │    └─PositionWiseFeedForward: 3-46     [16, 239, 768]            4,722,432
│    │    └─Dropout: 3-47                     [16, 239, 768]            --
│    │    └─LayerNorm: 3-48                   [16, 239, 768]            1,536
│    └─BertLayer: 2-15                        [16, 239, 768]            --
│    │    └─MultiHeadAttentionLayer: 3-49     [16, 239, 768]            2,362,368
│    │    └─Dropout: 3-50                     [16, 239, 768]            --
│    │    └─LayerNorm: 3-51                   [16, 239, 768]            1,536
│    │    └─PositionWiseFeedForward: 3-52     [16, 239, 768]            4,722,432
│    │    └─Dropout: 3-53                     [16, 239, 768]            --
│    │    └─LayerNorm: 3-54                   [16, 239, 768]            1,536
│    └─BertLayer: 2-16                        [16, 239, 768]            --
│    │    └─MultiHeadAttentionLayer: 3-55     [16, 239, 768]            2,362,368
│    │    └─Dropout: 3-56                     [16, 239, 768]            --
│    │    └─LayerNorm: 3-57                   [16, 239, 768]            1,536
│    │    └─PositionWiseFeedForward: 3-58     [16, 239, 768]            4,722,432
│    │    └─Dropout: 3-59                     [16, 239, 768]            --
│    │    └─LayerNorm: 3-60                   [16, 239, 768]            1,536
│    └─BertLayer: 2-17                        [16, 239, 768]            --
│    │    └─MultiHeadAttentionLayer: 3-61     [16, 239, 768]            2,362,368
│    │    └─Dropout: 3-62                     [16, 239, 768]            --
│    │    └─LayerNorm: 3-63                   [16, 239, 768]            1,536
│    │    └─PositionWiseFeedForward: 3-64     [16, 239, 768]            4,722,432
│    │    └─Dropout: 3-65                     [16, 239, 768]            --
│    │    └─LayerNorm: 3-66                   [16, 239, 768]            1,536
│    └─BertLayer: 2-18                        [16, 239, 768]            --
│    │    └─MultiHeadAttentionLayer: 3-67     [16, 239, 768]            2,362,368
│    │    └─Dropout: 3-68                     [16, 239, 768]            --
│    │    └─LayerNorm: 3-69                   [16, 239, 768]            1,536
│    │    └─PositionWiseFeedForward: 3-70     [16, 239, 768]            4,722,432
│    │    └─Dropout: 3-71                     [16, 239, 768]            --
│    │    └─LayerNorm: 3-72                   [16, 239, 768]            1,536
├─Linear: 1-3                                 [16, 768]                 590,592
├─Tanh: 1-4                                   [16, 768]                 --
├─Linear: 1-5                                 [16, 239, 1]              769
├─Linear: 1-6                                 [16, 239, 1]              769
===============================================================================================
Total params: 117,946,370
Trainable params: 117,946,370
Non-trainable params: 0
Total mult-adds (G): 1.89
===============================================================================================
Input size (MB): 0.06
Forward/backward pass size (MB): 3218.93
Params size (MB): 471.79
Estimated Total Size (MB): 3690.77
…
